NN.pth (torch, 6145 bytes, 6 tensors)

fc1.weight f8 [16, 20]
0	0xbfc7ea38977879e3	-0.186835359535464
1	0xbfd3aa99c3a5cea1	-0.30728763681620747
2	0xbfca9d2495940b56	-0.20792062095287162
3	0xbfe00f5abe8f2e53	-0.5018743249760952
4	0x3fa814796b9fb149	0.0470312065006931
5	0xbfc9baa61872beda	-0.2010085696579072
6	0x3fda670fbcff10e4	0.4125403733890052
7	0x3fd8a938bbf3755a	0.38532846788969766
8	0xbf9f3577dfe387af	-0.030477402725302912
9	0xbfdefb13945a2b78	-0.4840744923355298
10	0x3fb8ed747ceafebb	0.097373276231333
11	0x3fe0d8f5a7d50f65	0.5264843252157162
12	0xbfd290f04a63a7ab	-0.2900963522393975
13	0x3fc1d73d29b99dd3	0.13938107049328483
14	0x3fd3c80b6340cdab	0.30908474629105837
15	0x3fd42bc04c797ef9	0.315170359308453
16	0xbfd625eae438b6a4	-0.34606430327662907
17	0x3fe7e39283afe53a	0.7465298244489198
18	0x3fd610c7ce4d83dc	0.3447741999316898
19	0x3fd8ada897ff00fc	0.3855992779099464
20	0x3fc3ca72b0d0b7ff	0.15461572297630252
21	0x3fd027ac75b78ccb	0.2524214887218476
22	0xbfbf327318b712ca	-0.1218635497417139
23	0xbfbe945652e45977	-0.1194509460804961
24	0xbfbe833b1747a7e5	-0.11918992346150466
25	0x3fce49f4e13fed52	0.23663197515984763
26	0x3fdbc7c4900126ad	0.43406786024989225
27	0xbfe11e9b6f71bcf1	-0.5349862267156863
28	0x3fdb4e189f917678	0.42664161284287827
29	0xbf9bf9fcba28ad19	-0.027320813047635093
30	0x3fa89673c751d230	0.04802285965061903
31	0x3fd116771d710114	0.2669961726678747
32	0xbfe108e718258aa9	-0.5323367568601799
33	0x3fd43e7b334480a3	0.3163135529193914
34	0x3fd400e54aca47c8	0.31255466750837657
35	0xbff68f53a39c9909	-1.4099918738443782
36	0xbfb2b1b769439b86	-0.07302423782276266
37	0x3fadc51e653d1d4b	0.05814452157806701
38	0xbfd04a29f22d2895	-0.254526602268592
39	0x3fda36d9f7f1a9f4	0.40959786618500904
40	0xbfad78c5f9265282	-0.057562052406102474
41	0xbfd011434dccebcd	-0.25105364415838666
42	0xbfa9a04a75d17eb9	-0.050051047212716644
43	0xbfc6e2e67e374a39	-0.17879944956674068
44	0xbf4b3e24c3d14739	-0.0008313827053234364
45	0xbfb182a9a77445d2	-0.06840000475155897
46	0x3fbd280397cd0e26	0.1138918157203582
47	0x3fbcf7e11ec828aa	0.11315733911047468
48	0x3fc5cba50a0a0b2f	0.1702772425670331
49	0xbfd1cff59b2c8b94	-0.27831783441268354
50	0x3fafdb42ea97249a	0.06221970666553851
51	0xbfbe81e2bcae84d5	-0.11916939836966674
52	0x3fe4336dcd673ced	0.631277943781155
53	0xbf7601cf5bb85535	-0.0053728198941105825
54	0x3fc1c8995f91008b	0.13893429914788089
55	0xbffa78ca07f3243c	-1.6544895468271212
56	0x3fd935bf03b0fb7a	0.3939054046676841
57	0x3f88efa092f2d4e0	0.012175802692903692
58	0xbfbdf35fb2174a18	-0.11699483964847734
59	0xbfd49d3de3002128	-0.3220972744752708
60	0x3fc0b368d8a0e904	0.13047514512602032
61	0x3fdb05c1bd1427a5	0.42222636666030616
62	0xbf92ef3052a8da95	-0.018490557713642792
63	0x3fc11c1cb0c5e445	0.13367041236395685
64	0x3fd363820befa970	0.3029484860004663
65	0x3fce39a5505f5dc0	0.236134208912274
66	0x3fb7fdf7efd12c14	0.09371900181683684
67	0x3fd34187547cd129	0.3008745503496067
68	0x3fad7282d452b20f	0.057514274996126706
69	0xbfc1de82e72fcf83	-0.13960300720611593
70	0xbfb7f59f806e107a	-0.09359166036125713
71	0xbfdf901bccfd78e3	-0.4931706907135675
72	0x3fd2bae5dd9832a1	0.2926573432930955
73	0x3fe03c75120b9bbf	0.5073800423095846
74	0x3fe2253663061e6a	0.5670425352154329
75	0x3fc5abd61294d7e7	0.16930652529998655
76	0xbfd9923d3cf837ce	-0.39955073312819145
77	0xbfe1deac156ae0d9	-0.5584316652594011
78	0x3fe4d3c5dc5aeda0	0.6508511833011887
79	0x3fd27249cd62861a	0.28822560364832983
80	0x3f4f415c4963572e	0.0009538365000263166
81	0x3fc00c1bba052532	0.12536951621067655
82	0xbfbbe596a036b87a	-0.1089719906946999
83	0x3fd4717ac6856468	0.3194262446100482
84	0xbfc17d7609327f5b	-0.13664126824459796
85	0x3fca6e777c55716b	0.20649617739662615
86	0x3f540c2d92f27266	0.0012236065920553595
87	0x3fa675210beca068	0.0438623740249689
88	0xbfaf5948ba0e2436	-0.06122805854017381
89	0x3fc45cd7b09bd8c3	0.15908332942462353
90	0xbfcd2c8820d39ce7	-0.22792150118696172
91	0x3fafa19568757dff	0.06177966022618974
92	0x3fa1528e0886078e	0.03383296827361369
93	0x3fbc6cd8c5bf8984	0.11103586986386033
94	0xbfa9326ae9cf4bb2	-0.049212780991772745
95	0x3fa5d695ebbe0fca	0.04265278341975394
96	0xbfc09b1d8f9346e0	-0.1297337485362311
97	0x3fcb509beac2135f	0.21339749300764319
98	0xbfe07df6d7aec136	-0.5153764927436331
99	0x3fd2241ee927048e	0.28345463532247883
100	0xbfa51e1e105ab1e0	-0.04124540280949751
101	0xbfb7b1965fc02bbb	-0.0925535186544683
102	0xbfa8c792fd7e3216	-0.04839763016125091
103	0xbfd3fc5fc5bcc54e	-0.31227869329730573
104	0xbfa742ce2ae84158	-0.04543155931253534
105	0x3fd5bfafdfc81bfa	0.33982464650802024
106	0x3fc69322c27a2b60	0.17636522766073437
107	0xbfd4b8364f858288	-0.323743417413461
108	0xbfeaa8f1729915de	-0.833122943710517
109	0x3fd61e87045590d5	0.3456132452322554
110	0x3fee47c9c040499c	0.9462631945519209
111	0xbfee928032367f39	-0.9553833943100251
112	0x3fce814913ad6f67	0.2383204790193034
113	0x3fc44b2ce7205838	0.1585441711947071
114	0xbfe2dcab5805e61e	-0.589437171859746
115	0x3fdd2c80b7b7e70c	0.45584123555418965
116	0xbfdb7cb2ebd795be	-0.4294860175271785
117	0x3fbd0f4885accefe	0.1135144544940054
118	0xbfb6a3847ff4feaa	-0.08843258022261105
119	0xbfd67b42265b5e4a	-0.35127309556762454
120	0xbfa818c5f27ef233	-0.04706400475649666
121	0xbfcf2630ec8fd146	-0.2433530001723147
122	0x3fb63f83e2916cdb	0.086906664671392
123	0x3fd1027de8e987b5	0.2657770895513026
124	0x3fe22844c654d450	0.5674156068477121
125	0x3fd0a99df3898867	0.26035259993489607
126	0xbff4055d033eec53	-1.251309406927949
127	0xbfbd86d3bcc5f9f9	-0.11533854826664215
128	0x3fe4615401d26dfe	0.6368808780275115
129	0xbfda38a0131ee8c3	-0.4097061335302323
130	0x3f63ae70ad157eae	0.002402515478635645
131	0xbfba1d5f036d8419	-0.10201066812216232
132	0xbfb0eef02e3b2931	-0.06614590767563723
133	0x3fe9bfc2bfc72f3e	0.8046582933106732
134	0xbfe310beee533877	-0.5957941679751134
135	0x3f8fccfa37faab37	0.0155276821454514
136	0x3fb2857423fb853f	0.07234884146193553
137	0xbfd7b4f1185e6850	-0.37041880969775764
138	0x3fc5cc44534e7966	0.17029623096182006
139	0xbfc4b6ffee9de8bd	-0.16183470870220687
140	0x3f858a6b54d58413	0.010517920042447703
141	0xbf939eb054693daa	-0.01916003718571139
142	0x3fc0e64b1ad7de97	0.1320279961653241
143	0x3fd513097f5c4a34	0.32928693234967743
144	0xbfc117b0cc326c51	-0.13353548021845765
145	0xbfef432bf253b646	-0.9769496663045139
146	0x3fe5b84b4b034e44	0.6787468400093037
147	0x3fbd4d70c8cfdc54	0.11446289923320424
148	0xbfdb691d162b9300	-0.42829062619266267
149	0xbfd7f692c6567b25	-0.37442464226653477
150	0x3fd52bc49f9e0328	0.3307963904153888
151	0xbfa085114c5fa5b3	-0.03226522500319664
152	0xbfdcaa0a5cb4c766	-0.4478784470876377
153	0x3fdaa580bffac605	0.4163514971542955
154	0xbfc53f5cac85a08b	-0.1659961550133214
155	0x3fc487d971966fdd	0.16039579435607623
156	0xbfcb6bdb6c2c6d19	-0.21422903806601637
157	0x3fca5749de5ec7f8	0.20578883512422386
158	0xbfb6810a437352c9	-0.08790649554004938
159	0x3fb5c4aedf23d3e6	0.08503239581825958
160	0x3fa542085c7ef21e	0.04151941422557946
161	0x3fb09ea2f3afa462	0.0649206013619206
162	0x3fa6c37bad2ed742	0.044460167780398865
163	0x3fc01ab59dc4b53b	0.12581510737929044
164	0x3f7c7291d08c0ac7	0.006945199573922429
165	0x3fa624ace05d1c19	0.04324856032194919
166	0xbf8119eda2502454	-0.008350235477353397
167	0x3fc0fce268a6ece3	0.13271741971934778
168	0xbfc517ca81adf0fe	-0.16478854496006784
169	0x3fbd22966cdb174f	0.11380901486981297
170	0x3fc79aea0235e0bd	0.18441510303433076
171	0xbfba400e2dd93f41	-0.1025399076399909
172	0x3fc3302bec6522bf	0.1499075798294793
173	0xbfab1f47a1950deb	-0.05297302100600717
174	0xbfe28bd3c89a3a54	-0.579568759729066
175	0x3fd3bf19bb84195f	0.30853884994612274
176	0x3ff099f85f1fa83d	1.0375903812187197
177	0x3ff1a7c0dd53ff31	1.1034554143552209
178	0xbfc3735f2b08ea4d	-0.1519583664065344
179	0xbff6e5e937c8e161	-1.4311306170548834
180	0xbf614a7b780fddc8	-0.0021107112411262487
181	0x3f6b155717233012	0.0033060742362973706
182	0x3f939339a16b6e52	0.0191163067600953
183	0x3fc939c37c9807fb	0.19707530578313012
184	0xbfd1ae0641d8406b	-0.2762466090216608
185	0x3f979f0fe3896dba	0.02306771112703896
186	0xbfd0ed1b91188287	-0.26447190446382546
187	0xbfe01c06f1afcf4c	-0.5034212799496145
188	0xbfd1abfaf865c0ca	-0.27612184770169945
189	0xbfa7933c3464ef3f	-0.04604519023493347
190	0x3fabe3dd3c4e36cf	0.05447284089232839
191	0x3f61e6d64afcc385	0.0021852670105534954
192	0x3fb87a3d2c78c7f2	0.09561521850335433
193	0xbfd211b38acb2d7e	-0.28233040384358066
194	0xbfce4fb1131755ae	-0.2368069976061355
195	0xbfe3c69181c3a047	-0.6179893049675308
196	0xbfcf37bd50a0bf97	-0.24388853489790271
197	0x3fcfd8277dfd93b3	0.24878400470620718
198	0x3ffc25aa94d1956f	1.7591958821515978
199	0x3fe05d1d62309799	0.5113665502328671
200	0xbf969e07072f93a7	-0.022087201894368438
201	0xbfd67356f51baaec	-0.3507897752412379
202	0xbfccf3ee24db98f1	-0.22619416045853982
203	0x3fa54f67463d7db1	0.04162142498421007
204	0xbfde2b45392fbebd	-0.4713910158597903
205	0xbfcc6c7648b79328	-0.22205999899520035
206	0x3fc4698548fd979a	0.15947023452752945
207	0xbfc71f80443cb59c	-0.1806488354863348
208	0xbfc76854e77b50e2	-0.18287144949739004
209	0x3fb9562cb8eb1f1b	0.09897117151842531
210	0x3fcd89d87887b5e1	0.23076921353587834
211	0x3fcab4c87bb2ac24	0.20864206352175174
212	0x3fe1dde9327aaefe	0.5583387361452592
213	0x3fe3cd001ddb090f	0.6187744696729015
214	0x3fe2ea87c8cfa182	0.5911292001811008
215	0x3fe953799b554605	0.7914398225640872
216	0x3fdd7d09ae1f90ec	0.4607567024634267
217	0x3fb030cff8635c6e	0.06324481786883648
218	0xbfbd5dccbad3e64f	-0.114712520229568
219	0x3fd2712f870d4cad	0.2881583041063987
220	0x3fc50d3cf4671079	0.1644664948818251
221	0x3fbde685aaf1523a	0.1167987387028199
222	0x3fccd409eefe755c	0.22522091073634953
223	0x3f949da715a9cb95	0.020132647225590345
224	0x3fe0b40dcf4c3aa0	0.5219792412552415
225	0x3fca900886090419	0.20752054733932893
226	0x3fc85d390ab882df	0.1903449346873662
227	0x3fba32d54c8515e2	0.10233815305863161
228	0xbfb3183128790b48	-0.07458789098840868
229	0x3fd7cf3a0dcfdc8e	0.37202311848472724
230	0x3fa9f939d530ee9d	0.05072956778937263
231	0x3fe61733c3cbd3e4	0.6903323005814141
232	0x3f75183d7bd0ea62	0.005150070353063004
233	0x3f9b6a01b31d07b8	0.02677157073708944
234	0xbfe2a85f68be8817	-0.5830533071314247
235	0xbfcc2f5dcf3db716	-0.22019550913994895
236	0xbfed5b6e88e21df1	-0.91741110548986
237	0x3fe6732cd2ba7101	0.7015594592844822
238	0x3fc9b4d30918e9fe	0.20083082145886516
239	0x3fce1506500b00b0	0.23501662166927906
240	0x3fb6622ea5eb7cf6	0.08743564177301608
241	0x3fc6159926f66101	0.17253412630521583
242	0xbfcb258d6491d458	-0.21208350573184265
243	0xbfdc114b3991ca5e	-0.4385555326654521
244	0xbfc311708dd8ec64	-0.14896971632137757
245	0xbfde32fbc6e3bb1a	-0.47186178610620433
246	0xbfc68870ccc31381	-0.17603883741517382
247	0x3fdeaee17dc561b0	0.4794238785011897
248	0x3fdf864af1449ec4	0.49257157861073275
249	0x3fe4f6c23fe9bdeb	0.6551219223310317
250	0x3fc307355c49f5e1	0.14865748411459292
251	0xbfd6699b81588c4a	-0.35019576674875863
252	0x3fe86451fee10096	0.7622461298087895
253	0xbfb03e6975c8cc68	-0.06345233083338686
254	0xbfe62dbf5e73b578	-0.6930844158902536
255	0x3fe91a6b6bba421d	0.7844750503591659

fc1.bias f8 [16]
0	0xbfb9c0b7244a7cfa	-0.10059685359964368
1	0xbfeaf0e3f4a9e686	-0.8419055727565172
2	0x3fe58e21c77b303d	0.6736000915639192
3	0x3fe01af2131888ee	0.5032892582860578
4	0xbfe427095d59e669	-0.6297652076020316
5	0xbfe53d49a99c052a	-0.6637314140972752
6	0xbfea60195b38ea8d	-0.8242308408437836
7	0xbfec8756e5c55f1b	-0.8915209281649114
8	0x3fe74d138b4eb06a	0.7281587334487203
9	0x3f7f38cbab6d6fa7	0.007622523865247566
10	0x3fe7aab48c827020	0.7395880455328587
11	0x3ff3654b0f5dd9ee	1.212229785943801
12	0xbfc9e2b39395a939	-0.20223087984352064
13	0xbfeeb3716d8a3514	-0.9594046725702889
14	0xbfeed763642d5801	-0.9637925106605963
15	0x3ff08fa4b6212270	1.0350691904478957

fc2.weight f8 [8, 16]
0	0xbfbe5b3168f803ca	-0.11857899487223658
1	0xbfd9c772e7f63e4e	-0.4027983918431105
2	0x3ff0d1297cf167ef	1.0510649567208892
3	0x3fd34fbd9bf1177d	0.30174198368728594
4	0x3fd029b56de2bafe	0.25254569750806855
5	0xbfdc1e1f3d9b45fd	-0.4393385030390105
6	0xbfd2c6dd7c295d4a	-0.29338776707796355
7	0xbfc878cec5432bfc	-0.19118675834610588
8	0x3fdba2551e765c3d	0.43178298926199316
9	0x3fd6365ac41022e2	0.34706753870754714
10	0x3fc1cc2131b45495	0.13904204298947734
11	0x3fe6f894535430b7	0.7178441646115264
12	0xbfd297cef0a578d1	-0.29051564694044624
13	0xbfe1c97ff0efaf64	-0.5558471399103664
14	0xbfd4078a8288ed23	-0.31296026942773575
15	0x3fe405d334f0da98	0.6257110628128713
16	0x3fd9232f1e9cf3e4	0.3927724646526356
17	0x3fd65280586baa7d	0.3487854827386981
18	0xbfe9a9847f83aded	-0.8019430628314105
19	0xbfd29315370d3e2a	-0.29022722602982987
20	0x3fd143760c299a15	0.26974250018830165
21	0x3fd556a79f20e952	0.3334139875402303
22	0x3fe05a65ddc2b287	0.5110349017391663
23	0x3fde666d4988aad6	0.47500164204636286
24	0xbfd061202e442cda	-0.2559280826396396
25	0xbfbf209c42c8f7f5	-0.1215913451241873
26	0xbfd79667a266a5f7	-0.3685549817988369
27	0xbfe37a897e58bd16	-0.608708140154621
28	0x3fe2cda0c40e9d3f	0.5876010731925944
29	0x3fe4b3a57d5cfb90	0.6469294975757851
30	0x3fde51dc3dc84c22	0.47374635728300707
31	0xbfd104e411a19db7	-0.2659235164814748
32	0x3fd7ba4632f34a86	0.37074427581425373
33	0xbfe6bee2d4c457d5	-0.7108015208821096
34	0x3fc37914ac069271	0.1521325912446119
35	0xbfec5eea1bc822a4	-0.8865862410176146
36	0xc002040897b640a3	-2.251969514130978
37	0x3fd01cbf17c18c11	0.251754544448148
38	0x3fc6e4a667dcfc36	0.17885284491964776
39	0xbfe3ab32db59b5ef	-0.6146482738674289
40	0x3fa595170521339e	0.04215309083574613
41	0xbf974af47ff45e8d	-0.02274686842892364
42	0x3fdb552ba0345be2	0.42707338948224394
43	0xbff30bfc88bd7f66	-1.1904263821997687
44	0xbf9f8bc2138fcc18	-0.030806572383834746
45	0xbff4b880a6fc930d	-1.295044567386131
46	0xbfeab10407f297eb	-0.8341083674647484
47	0xbfff7e67e5f26bdf	-1.9683608038237634
48	0xbfc0a35d6b0616ff	-0.1299855015351383
49	0xbfa1667ec7d916a7	-0.03398510160017781
50	0xbfb0126297e9f136	-0.0627805348285094
51	0xbfd64211227803db	-0.3477824055299245
52	0xbfd2de1d769a1840	-0.2948068292829511
53	0xbfc00fc6edbe48d8	-0.12548147781905672
54	0xbfbf27bd6900f153	-0.12170013249937499
55	0xbfa4fac6dcb71e42	-0.04097577518728858
56	0xbfd4e7fc59609aa4	-0.3266592858148363
57	0x3fadd7a6c249548b	0.05828591462765428
58	0xbfcd3a77cef6c18c	-0.22834680181177835
59	0xbfcfab0a6c54692d	-0.24740724839723197
60	0x3fb7df8e466d012b	0.09325494021777973
61	0xbfbe55f4c34981fe	-0.11849908607246815
62	0xbfaeaf53b28bcf8d	-0.05993138842123278
63	0x3f923aca376053c0	0.017802390699291015
64	0xbfccd498f863a05a	-0.2252379620397303
65	0xbfbbd0bc43eb045a	-0.10865379961161761
66	0xbfc6c9eed99dba28	-0.1780375063494415
67	0xbfd64649f63a633b	-0.3480400948115407
68	0xbfc226116ac747e2	-0.14178674424925847
69	0xbfcf865aa802c34f	-0.24628766254093157
70	0x3fc61d3e8ed1b278	0.17276746724691683
71	0x3fba96036f6d7701	0.10385152311706848
72	0xbfd2af339157e205	-0.2919434470527736
73	0x3fa6b795bb999723	0.044369391584764516
74	0xbfd1462fcf82be3c	-0.26990885987013136
75	0x3fafa6d69b408e82	0.061819750262910325
76	0xbfd45c3bc7abcd97	-0.3181294870293753
77	0x3fc3cd405e210d83	0.1547012767424399
78	0xbfb65a7040c2ff04	-0.08731748181434901
79	0xbfd42d927b4b9b76	-0.31528150597153315
80	0xbfc811c61c0d950e	-0.18804241533067806
81	0xbfb2262e1cd640d6	-0.0708950825121549
82	0xbfdfdb056d8f4fa5	-0.4977429933471689
83	0xbfd402791edca68f	-0.3126509477029708
84	0xbfde6a409b0b3037	-0.4752351297472645
85	0xbfd7c880fb3160ed	-0.3716127827697296
86	0x3f9472bc20d5aa61	0.019968928817812762
87	0xbfc5e91208f488a3	-0.1711752456404315
88	0xbfe03010f12a2796	-0.5058674535987275
89	0xbfa26a4c199c32ae	-0.03596723377822762
90	0xbfd017ac93f765a5	-0.25144495439379916
91	0xbfd8c1787056e9e3	-0.38680850001006045
92	0xbf658fe1a8a4c4e0	-0.002632084598325521
93	0x3fa712ec74884855	0.045066251015797455
94	0xbfb0978d5f5fd95b	-0.06481250360943618
95	0x3facd685d31ebc8b	0.05632417871617531
96	0xbfb5dc740aceec31	-0.08539510024904541
97	0xbf929ccbbbd29476	-0.018176253641872774
98	0x3fa88ffc7a6e8294	0.047973527856133874
99	0xbfd1c478299082ba	-0.27761653956444443
100	0xbfd4d756dfb77c3c	-0.32564327094400247
101	0xbfb866db51c2a1cf	-0.09531946893787978
102	0xbfd2daf29ef327dd	-0.2946135093922047
103	0xbfd4e05de47f31d5	-0.3261942607321349
104	0xbfd448d513fba9de	-0.3169453330180242
105	0xbfc14fce87607bad	-0.135248008825298
106	0xbfd4bde86a64495d	-0.3240910567266349
107	0x3fb0a9f81655f6fb	0.06509352250392546
108	0xbfd36c8d83bb62bb	-0.3035005365796157
109	0xbfb2fc710fabf955	-0.07416445381747867
110	0x3fa32253876d2cd7	0.03737126377253624
111	0xbfc83f4641ec196c	-0.18943098276958936
112	0xbfbb93a9bd8c297e	-0.10772190930962286
113	0xbf98b8411e93da04	-0.024140374652199995
114	0x3fada8b5f5017056	0.057927786024010317
115	0xbfdef6501c3917a2	-0.48378374820856085
116	0xbfd3f78f1d076dc6	-0.311984804485942
117	0xbf919a90c48eda03	-0.0171911830873004
118	0xbf98fc19352a2898	-0.024399179334559123
119	0xbfbb9bc575c7db9e	-0.10784563184266324
120	0xbfcc35228dda6aac	-0.22037155081200888
121	0x3faab072c4d989ca	0.05212744381858021
122	0xbfbab608838530d7	-0.10434010706848383
123	0xbfd497878e900022	-0.32174862787360514
124	0xbfcc3b4e38a85150	-0.22055986181716003
125	0xbfbe3910e7d67e01	-0.11805825862983711
126	0xbfb52bfd28513f10	-0.08270246729193453
127	0xbfd9dfadb260ffc9	-0.40427725238623374

fc2.bias f8 [8]
0	0x3fee102e02c9f21c	0.9394750647039163
1	0xbfe74a8ccc935edf	-0.727850341379021
2	0x3ff0d97d4af01b4f	1.0530980040800448
3	0xbfbef5b2de4a23e1	-0.12093656470291549
4	0xbfde4e1a635d9cf1	-0.47351703361205383
5	0x3faad00197d74ae8	0.052368211541439724
6	0xbfc89e1c7fc28bea	-0.192325174696719
7	0xbfc4c13b74a74a00	-0.16214698024721486

fc3.weight f8 [2, 8]
0	0xbfb36fb400000000	-0.07592320442199707
1	0xbfac1e81e0000000	-0.0549202524125576
2	0xbfabaedf60000000	-0.05406854674220085
3	0xbfd4dd86e0000000	-0.3260209262371063
4	0xbfb3445180000000	-0.0752612054347992
5	0xbfd505f0e0000000	-0.3284876048564911
6	0xbfc098cea0000000	-0.12966330349445343
7	0x3fb0ea7460000000	0.06607749313116074
8	0x3fb082eb20000000	0.06449765712022781
9	0x3fb9b94f60000000	0.10048385709524155
10	0xbfcb0b9060000000	-0.2112904042005539
11	0xbfc2d7ed40000000	-0.14721456170082092
12	0x3fbe4c2a60000000	0.11834969371557236
13	0xbfd060bd40000000	-0.25590449571609497
14	0x3fd462f500000000	0.3185398578643799
15	0xbfca316860000000	-0.20463280379772186

fc3.bias f8 [2]
0	0xbfbaeb7220000000	-0.10515511780977249
1	0xbfc8578220000000	-0.1901705414056778
